_________________________________________________________________
Layer (type)                 Output Shape              Param #
=================================================================
conv2d_1 (Conv2D)            (None, 30, 30, 32)        320
_________________________________________________________________
activation_1 (Activation)    (None, 30, 30, 32)        0
_________________________________________________________________
conv2d_2 (Conv2D)            (None, 28, 28, 32)        9248
_________________________________________________________________
activation_2 (Activation)    (None, 28, 28, 32)        0
_________________________________________________________________
max_pooling2d_1 (MaxPooling2 (None, 14, 14, 32)        0
_________________________________________________________________
dropout_1 (Dropout)          (None, 14, 14, 32)        0
_________________________________________________________________
conv2d_3 (Conv2D)            (None, 12, 12, 64)        18496
_________________________________________________________________
activation_3 (Activation)    (None, 12, 12, 64)        0
_________________________________________________________________
conv2d_4 (Conv2D)            (None, 10, 10, 64)        36928
_________________________________________________________________
activation_4 (Activation)    (None, 10, 10, 64)        0
_________________________________________________________________
max_pooling2d_2 (MaxPooling2 (None, 5, 5, 64)          0
_________________________________________________________________
dropout_2 (Dropout)          (None, 5, 5, 64)          0
_________________________________________________________________
flatten_1 (Flatten)          (None, 1600)              0
_________________________________________________________________
dense_1 (Dense)              (None, 256)               409856
_________________________________________________________________
activation_5 (Activation)    (None, 256)               0
_________________________________________________________________
dropout_3 (Dropout)          (None, 256)               0
_________________________________________________________________
dense_2 (Dense)              (None, 75)                19275
_________________________________________________________________
activation_6 (Activation)    (None, 75)                0
=================================================================
Total params: 494,123.0
Trainable params: 494,123.0
Non-trainable params: 0.0
_________________________________________________________________
Train on 9275 samples, validate on 2319 samples
Epoch 1/20
2017-05-27 05:28:57.124468: W tensorflow/core/platform/cpu_feature_guard.cc:45] The TensorFlow library wasn't compiled to use SSE4.1 instructions, but these are available on your machine and could speed up CPU computations.
…
