Layer (type)                 Output Shape              Param #
=================================================================
conv2d_1 (Conv2D)            (None, 30, 30, 32)        320
_________________________________________________________________
activation_1 (Activation)    (None, 30, 30, 32)        0
_________________________________________________________________
max_pooling2d_1 (MaxPooling2 (None, 15, 15, 32)        0
_________________________________________________________________
conv2d_2 (Conv2D)            (None, 13, 13, 64)        18496
_________________________________________________________________
activation_2 (Activation)    (None, 13, 13, 64)        0
_________________________________________________________________
max_pooling2d_2 (MaxPooling2 (None, 6, 6, 64)          0
_________________________________________________________________
flatten_1 (Flatten)          (None, 2304)              0
_________________________________________________________________
dense_1 (Dense)              (None, 256)               590080
_________________________________________________________________
activation_3 (Activation)    (None, 256)               0
_________________________________________________________________
dropout_1 (Dropout)          (None, 256)               0
_________________________________________________________________
dense_2 (Dense)              (None, 75)                19275
_________________________________________________________________
activation_4 (Activation)    (None, 75)                0
=================================================================
Total params: 628,171.0
Trainable params: 628,171.0
Non-trainable params: 0.0
_________________________________________________________________
Train on 9275 samples, validate on 2319 samples
Epoch 1/20
9275/9275 [==============================] - 24s - loss: 2.3542 - acc: 0.3975 - val_loss: 1.2640 - val_acc: 0.6292
Epoch 2/20
9275/9275 [==============================] - 23s - loss: 0.8581 - acc: 0.7370 - val_loss: 0.7987 - val_acc: 0.7512
…
